ML/Assignment2/VotingClassifier_StartModel_10_ckpt.pth (torch, 9425 bytes, 20 tensors)

estimators_.0.network.0.weight f4 [3, 4]
0	0xc0e02292	-7.00422
1	0xbeaf2021	-0.342042
2	0xbfc502fb	-1.5391535
3	0xbfc087ac	-1.5041404
4	0x4037448e	2.8635592
5	0xbdef086a	-0.11671527
6	0x410149ee	8.080549
7	0x3f742938	0.95375395
8	0x40984e7c	4.7595806
9	0x3ee52a1c	0.4475869
10	0xc0e557bd	-7.1669602
11	0x3eb5fb0e	0.35543102

estimators_.0.network.0.bias f4 [3]
0	0x40758525	3.8362515
1	0xc07c0c6f	-3.938259
2	0x3def7ee1	0.11694122

estimators_.1.network.0.weight f4 [3, 4]
0	0xc0e26337	-7.074611
1	0xbeb338e5	-0.35004345
2	0xbfc58e54	-1.543406
3	0xbfb99ba6	-1.4500625
4	0x40337a66	2.8043456
5	0xbda628e8	-0.08113271
6	0x41016ab9	8.088555
7	0x3f815167	1.0102967
8	0x4095b8e4	4.6788197
9	0x3ee08159	0.43848684
10	0xc0e4a80b	-7.145513
11	0x3ed8d888	0.423527

estimators_.1.network.0.bias f4 [3]
0	0x40670c7c	3.610137
1	0xc0864099	-4.1953855
2	0xbdf85518	-0.12125605

estimators_.2.network.0.weight f4 [3, 4]
0	0xc0e62942	-7.1925364
1	0xbeb43e67	-0.3520386
2	0xbfc56b9b	-1.5423464
3	0xbfb7e160	-1.4365654
4	0x402aa563	2.6663444
5	0xbdb1c8e5	-0.08680896
6	0x4101208e	8.070448
7	0x3f848f0e	1.0356157
8	0x4091b58c	4.5534115
9	0x3ee73efd	0.45165244
10	0xc0e53fca	-7.1640368
11	0x3edd8322	0.4326411

estimators_.2.network.0.bias f4 [3]
0	0x4078b179	3.885832
1	0xc07a412a	-3.9102273
2	0x3e28107e	0.16412541

estimators_.3.network.0.weight f4 [3, 4]
0	0xc0e51f86	-7.160098
1	0xbeb00871	-0.3438144
2	0xbfbda4bc	-1.4815898
3	0xbfb42165	-1.4072691
4	0x402f021e	2.7345042
5	0xbd9ad435	-0.075600065
6	0x4101ec2e	8.120161
7	0x3f891e02	1.0712283
8	0x40936070	4.605522
9	0x3ee17fa7	0.44042704
10	0xc0e3fe82	-7.124818
11	0x3ee613e9	0.44937065

estimators_.3.network.0.bias f4 [3]
0	0x4075b864	3.8393793
1	0xc07e6510	-3.9749184
2	0x3de2f611	0.1108209

estimators_.4.network.0.weight f4 [3, 4]
0	0xc0e36c3e	-7.106963
1	0xbeb06aeb	-0.34456572
2	0xbfc5edf3	-1.5463241
3	0xbfbc0fd2	-1.4692328
4	0x4031db11	2.7789958
5	0xbdec83eb	-0.11548599
6	0x4100f16d	8.058942
7	0x3f7fd297	0.9993071
8	0x4094d935	4.6515145
9	0x3edab6f8	0.4271772
10	0xc0e6348c	-7.1939144
11	0x3ecb557a	0.3971365

estimators_.4.network.0.bias f4 [3]
0	0x406ecb99	3.7311766
1	0xc081e5e8	-4.0593147
2	0xbba22629	-0.0049483967

estimators_.5.network.0.weight f4 [3, 4]
0	0xc0e6c3d1	-7.2114034
1	0xbeb0cda0	-0.3453188
2	0xbfc84f92	-1.5649283
3	0xbfd061c5	-1.6279837
4	0x402b1de6	2.6736999
5	0xbdd3eb87	-0.10347658
6	0x4101208f	8.070449
7	0x3f5dd70d	0.86656266
8	0x4091a6c6	4.551608
9	0x3edd6da3	0.4324771
10	0xc0e60536	-7.188136
11	0x3e7e8a02	0.24857333

estimators_.5.network.0.bias f4 [3]
0	0x406f2061	3.7363513
1	0xc081f8e6	-4.061633
2	0x3c29015b	0.010315265

estimators_.6.network.0.weight f4 [3, 4]
0	0xc0e32213	-7.0979095
1	0xbeb4db58	-0.35323596
2	0xbfbc95a8	-1.4733171
3	0xbfbb2425	-1.4620405
4	0x40326517	2.78742
5	0xbdb4aa9e	-0.08821605
6	0x41029d73	8.16344
7	0x3f82f07a	1.0229638
8	0x4094f357	4.6547046
9	0x3edc15ac	0.42985284
10	0xc0e3151d	-7.0963273
11	0x3ed6b685	0.41936126

estimators_.6.network.0.bias f4 [3]
0	0x407199c8	3.775011
1	0xc080ecbd	-4.0288987
2	0x3d45d95c	0.048302993

estimators_.7.network.0.weight f4 [3, 4]
0	0xc0e5bb0a	-7.179082
1	0xbea5cfa4	-0.3238498
2	0xbfc542b5	-1.5410982
3	0xbfbf7ab3	-1.495932
4	0x402bdc1b	2.6853092
5	0xbdc503ce	-0.09619866
6	0x41010053	8.062579
7	0x3f77acfb	0.9674832
8	0x4091daa1	4.557938
9	0x3edd389e	0.43207258
10	0xc0e5e538	-7.184231
11	0x3ebc2970	0.36750364

estimators_.7.network.0.bias f4 [3]
0	0x407897ac	3.8842573
1	0xc07b5f01	-3.9276736
2	0x3e14e9b5	0.14542277

estimators_.8.network.0.weight f4 [3, 4]
0	0xc0e2b52b	-7.084615
1	0xbeb397e7	-0.3507683
2	0xbfc0b883	-1.5056309
3	0xbfafc853	-1.3733009
4	0x4033cec4	2.809495
5	0xbdb243d2	-0.08704342
6	0x41023fd8	8.140587
7	0x3f91b8ad	1.1384484
8	0x4095ad75	4.677424
9	0x3ed4317b	0.41444
10	0xc0e44b0b	-7.1341605
11	0x3f014e95	0.5051053

estimators_.8.network.0.bias f4 [3]
0	0x40737d89	3.804537
1	0xc07fba3f	-3.9957426
2	0x3d99368e	0.074811086

estimators_.9.network.0.weight f4 [3, 4]
0	0xc0e96570	-7.2936325
1	0xbeb9c97f	-0.36286542
2	0xbfbd2c0e	-1.477907
3	0xbfc168ca	-1.5110104
4	0x402527e2	2.5805593
5	0xbdce240a	-0.10065468
6	0x41023b0f	8.139419
7	0x3f70a347	0.9399914
8	0x408eac04	4.458498
9	0x3ee48b48	0.44637513
10	0xc0e37ad6	-7.1087446
11	0x3eae1b3f	0.34005162

estimators_.9.network.0.bias f4 [3]
0	0x407932ae	3.8937182
1	0xc07aea43	-3.9205482
2	0x3e1624bd	0.14662452
